MachineLearningandNeurons/mymodel.pt (torch, 2207 bytes, 3 tensors)

0.weight f4 [5, 30]
0.36405033 0.16203712 0.13939118 0.036786314 0.10159261 0.12601401 0.047239397 0.09142029
0.075792305 -0.41024983 0.026456626 0.059504718 0.1799269 0.10064187 -0.21587332 -0.09213813
-0.024514282 -0.013014531 -0.161729 -0.14447488 0.33556888 0.26964343 0.11680728 0.22631638
0.31103796 0.16284935 0.16260646 0.15764916 0.28478894 0.17011549 -0.17950633 -0.37270868
-0.36177853 -0.20097058 -0.13670775 -0.2194824 -0.1598714 -0.3423025 -0.045541693 0.40612885
-0.2063393 0.083818324 -0.45579222 -0.33621374 0.39893842 -0.15241827 -0.2784679 -0.2719534
0.28432068 0.0088329725 -0.27343836 -0.40550902 -0.49802122 -0.40306735 -0.092230774 -0.2456263
-0.463842 -0.124332994 -0.27293238 -0.13950692 0.17950486 0.051321667 0.1547764 0.017062157
0.15499285 -0.016212009 0.04379843 0.2714061 0.07226686 -0.1950225 0.029631378 0.11048097
0.06918318 0.23019597 -0.18076265 -0.040851757 -0.06760056 -0.025933158 -0.29673123 -0.27148023
0.17386073 0.19513753 0.057263132 0.14197211 0.19667894 0.027043244 0.13971432 0.1865395
0.32604718 0.22861058 -0.14755781 -0.35247576 -0.24510942 -0.30175304 -0.36544257 -0.14350903
-0.40580732 -0.35585684 -0.14951642 0.36327904 -0.41296425 -0.038864978 -0.23626328 -0.5510375
-0.08986078 0.20997113 0.15918332 -0.086050354 0.10607521 0.27285516 -0.20597975 -0.2539101
-0.17562306 -0.5153357 -0.18285683 -0.12375771 -0.08504508 -0.3865537 -0.11919553 -0.20332587
0.18586573 0.20348926 0.13518575 0.2742659 0.08801593 0.06803652 0.15126187 0.22504894
-0.022104777 -0.2448901 0.033382483 0.009545549 0.3344883 0.24665888 0.1476515 -0.36450866
0.26606673 0.31566647 0.049113665 -0.29676953 0.3316027 0.1744952 0.12864672 0.21203642
0.45207882 0.16290496 0.371234 0.28134492 0.189905 0.1361283
00000000: ce64 ba3e 0fed 253e 90bc 0e3e 3fad 163d
00000010: c90f d03d d109 013e 197e 413d 903a bb3d
00000020: ff38 9b3d 440c d2be 91bb d83c 38bb 733d
00000030: c23e 383e 531d ce3d e50d 5dbe eab2 bcbd
00000040: 2dd2 c8bc e63a 55bc 499c 25be 39f1 13be
00000050: afcf ab3e b40e 8a3e a838 ef3d 7bbf 673e
00000060: 5e40 9f3e fbc1 263e 4f82 263e c86e 213e
00000070: dbcf 913e c132 2e3e 82d0 37be acd3 bebe
00000080: 093b b9be 3bcb 4dbe 1efd 0bbe ffbf 60be
00000090: 54b5 23be 4642 afbe ed89 3abd 1ff0 cf3e
000000a0: 9c4a 53be f1a8 ab3d 995d e9be 3524 acbe
000000b0: a841 cc3e 8913 1cbe 5893 8ebe 7a3d 8bbe
000000c0: 7b92 913e 2cb8 103c 1d00 8cbe e19e cfbe
000000d0: a3fc febe d85e cebe 7de3 bcbd 7685 7bbe
000000e0: b37c edbe 4ca2 febd cbbd 8bbe e7da 0ebe
000000f0: 1fd0 373e ab36 523d b47d 1e3e f0c5 8b3c
00000100: 72b6 1e3e 0ccf 84bc fc65 333d bef5 8a3e
00000110: a600 943d fab3 47be 81bd f23c d943 e23d
00000120: e9af 8d3d 7eb8 6b3e d819 39be 2c54 27bd
00000130: 2a72 8abd c671 d4bc 28ed 97be 75ff 8abe
00000140: 8c08 323e 22d2 473e bf8c 6a3d 2361 113e
00000150: 3466 493e cb89 dd3c 4511 0f3e 3604 3f3e
00000160: a8ef a63e e418 6a3e 6519 17be b477 b4be
00000170: f7fd 7abe 607f 9abe 4a1b bbbe 08f4 12be
00000180: fac5 cfbe de32 b6be d51a 19be b6ff b93e
00000190: 0d70 d3be e230 1fbd 00ef 71be cb10 0dbf
000001a0: ee08 b8bd ac02 573e f400 233e 2b3b b0bd
000001b0: f63d d93d acb3 8b3e 5bec 52be 8100 82be
000001c0: 88d6 33be 0aed 03bf d23e 3bbe af74 fdbd
000001d0: 1d2c aebd 5eea c5be c91c f4bd a834 50be
000001e0: 9653 3e3e 7d5f 503e 226e 0a3e 946c 8c3e
000001f0: b241 b43d bb56 8b3d 64e4 1a3e 3b73 663e
00000200: 1415 b5bc 78c4 7abe 12bc 083d ef64 1c3c
00000210: 0d42 ab3e 2594 7c3e f431 173e e1a0 babe
00000220: e639 883e 099f a13e 692b 493d 2df2 97be
00000230: d4c7 a93e dfae 323e f7bb 033e 1320 593e
00000240: e076 e73e 8fd0 263e 6212 be3e 710c 903e
00000250: 7576 423e 3865 0b3e

0.bias f4 [5]
0.25420085 0.34039932 0.18741088 0.6011476 0.31916508
00000000: 9d26 823e d248 ae3e a3e8 3f3e cfe4 193f
00000010: 9b69 a33e

2.weight f4 [1, 5]
-0.6323119 0.588015 -0.62813044 0.5942151 -0.64033437
00000000: 31df 21bf 2788 163f 28cd 20bf 7b1e 183f
00000010: f4ec 23bf
